…
sing_distributed=True, num_classes=1000, pretrained=False, print_freq=200, randomchosenmode=False, rank=0, resume='', seed=None, start_epoch=0, subset=False, subsetpath=False, weight_decay=0.0005, workers=8, world_size=1)
Use GPU: 0 for training
when creating the model, the number of classes are
1000
=> using pre-trained model 'alexnet_cdan'
the number of classes are 1000
----------------------------------------------------------------
        Layer (type)               Output Shape         Param #
================================================================
            Conv2d-1           [-1, 96, 62, 62]          34,944
              ReLU-2           [-1, 96, 62, 62]               0
         AvgPool3d-3        [-1, 1, 96, 62, 62]               0
               LRN-4           [-1, 96, 62, 62]               0
         MaxPool2d-5           [-1, 96, 30, 30]               0
            Conv2d-6          [-1, 256, 30, 30]         307,456
              ReLU-7          [-1, 256, 30, 30]               0
         AvgPool3d-8       [-1, 1, 256, 30, 30]               0
               LRN-9          [-1, 256, 30, 30]               0
        MaxPool2d-10          [-1, 256, 14, 14]               0
           Conv2d-11          [-1, 384, 14, 14]         885,120
             ReLU-12          [-1, 384, 14, 14]               0
           Conv2d-13          [-1, 384, 14, 14]         663,936
             ReLU-14          [-1, 384, 14, 14]               0
           Conv2d-15          [-1, 256, 14, 14]         442,624
             ReLU-16          [-1, 256, 14, 14]               0
        MaxPool2d-17            [-1, 256, 6, 6]               0
           Linear-18                 [-1, 4096]      37,752,832
             ReLU-19                 [-1, 4096]               0
          Dropout-20                 [-1, 4096]               0
           Linear-21                 [-1, 4096]      16,781,312
             ReLU-22                 [-1, 4096]               0
          Dropout-23                 [-1, 4096]               0
           Linear-24                 [-1, 1000]       4,097,000
================================================================
Total params: 60,965,224
Trainable params: 60,965,224
Non-trainable params: 0
----------------------------------------------------------------
Input size (MB): 0.75
Forward/backward pass size (MB): 22.66
Params size (MB): 232.56
Estimated Total Size (MB): 255.98
----------------------------------------------------------------
None
Adjusting learning rate of group 0 to 1.0000e-02.
…
