…
t_eps=1.0, wd=0.0001, world_size=1)
Output will be saved to /home/junzhin/Project/Summer_project/code/version3.0/training_results/self_training/ALEX_office31masked2Random/A_D/log_Office31_PseudoLabel_alexnet_cdan_A2D.
Use GPU: 0 for training
batch size on each gpu is: 128
Loading the local alexnet pretrained model weights!
the number of classes are in the alexnet cdan 958
----------------------------------------------------------------
        Layer (type)               Output Shape         Param #
================================================================
            Conv2d-1           [-1, 96, 62, 62]          34,944
              ReLU-2           [-1, 96, 62, 62]               0
         AvgPool3d-3        [-1, 1, 96, 62, 62]               0
               LRN-4           [-1, 96, 62, 62]               0
         MaxPool2d-5           [-1, 96, 30, 30]               0
            Conv2d-6          [-1, 256, 30, 30]         307,456
              ReLU-7          [-1, 256, 30, 30]               0
         AvgPool3d-8       [-1, 1, 256, 30, 30]               0
               LRN-9          [-1, 256, 30, 30]               0
        MaxPool2d-10          [-1, 256, 14, 14]               0
           Conv2d-11          [-1, 384, 14, 14]         885,120
             ReLU-12          [-1, 384, 14, 14]               0
           Conv2d-13          [-1, 384, 14, 14]         663,936
             ReLU-14          [-1, 384, 14, 14]               0
           Conv2d-15          [-1, 256, 14, 14]         442,624
             ReLU-16          [-1, 256, 14, 14]               0
        MaxPool2d-17            [-1, 256, 6, 6]               0
AdaptiveAvgPool2d-18            [-1, 256, 1, 1]               0
================================================================
Total params: 2,334,080
Trainable params: 2,334,080
Non-trainable params: 0
----------------------------------------------------------------
Input size (MB): 0.75
Forward/backward pass size (MB): 22.47
Params size (MB): 8.90
Estimated Total Size (MB): 32.12
----------------------------------------------------------------
None
odict_
…
odict_keys(['features.0.weight', 'features.0.bias', 'features.4.weight', 'features.4.bias', 'features.8.weight', 'features.8.bias', 'features.10.weight', 'features.10.bias', 'features.12.weight', 'features.12.bias', 'classifier.0.weight', 'classifier.0.bias', 'classifier.3.weight', 'classifier.3.bias', 'classifier.6.weight', 'classifier.6.bias'])
the learning rate multiple of the pre-trained feature is: 0.1
----------------------------------------------------------------
        Layer (type)               Output Shape         Param #
================================================================
            Conv2d-1           [-1, 96, 62, 62]          34,944
              ReLU-2           [-1, 96, 62, 62]               0
         AvgPool3d-3        [-1, 1, 96, 62, 62]               0
               LRN-4           [-1, 96, 62, 62]               0
         MaxPool2d-5           [-1, 96, 30, 30]               0
            Conv2d-6          [-1, 256, 30, 30]         307,456
              ReLU-7          [-1, 256, 30, 30]               0
         AvgPool3d-8       [-1, 1, 256, 30, 30]               0
               LRN-9          [-1, 256, 30, 30]               0
        MaxPool2d-10          [-1, 256, 14, 14]               0
           Conv2d-11          [-1, 384, 14, 14]         885,120
             ReLU-12          [-1, 384, 14, 14]               0
           Conv2d-13          [-1, 384, 14, 14]         663,936
             ReLU-14          [-1, 384, 14, 14]               0
           Conv2d-15          [-1, 256, 14, 14]         442,624
             ReLU-16          [-1, 256, 14, 14]               0
        MaxPool2d-17            [-1, 256, 6, 6]               0
AdaptiveAvgPool2d-18            [-1, 256, 1, 1]               0
          AlexNet-19                  [-1, 256]               0
         Identity-20                  [-1, 256]               0
           Linear-21                   [-1, 31]           7,967
       Classifier-22      [[-1, 31], [-1, 256]]               0
================================================================
Total params: 2,342,047
Trainable params: 2,342,047
Non-trainable params: 0
----------------------------------------------------------------
Input size (MB): 0.75
Forward/backward pass size (MB): 22.41
Params size (MB): 8.93
Estimated Total Size (MB): 32.10
----------------------------------------------------------------
…
